model_cnn.pth (torch, 435608 bytes, 8 tensors)

conv1.weight f4 [6, 3, 5, 5]
0.079640344 -0.028460564 0.042413168 0.02795893 0.018890966 0.048971437 0.010398607 -0.0745071
-0.031640988 0.02823862 -0.036263924 0.0021774305 -0.07092429 -0.002224732 -0.06724923 0.09140184
-0.11507645 -0.13666512 -0.0964854 -0.16737379 -0.085283816 0.0139749665 -0.057753168 -0.18652907
-0.07123506 -0.050920945 0.031585515 -0.015724085 0.006763633 0.02629679 -0.0561913 -0.04337806
0.0061540296 0.06928931 -0.04651956 -0.030777354 -0.024496458 0.053149443 0.08248234 -0.08712654
-0.032653455 0.05064466 -0.081604116 0.074950956 -0.017986625 0.10040247 -0.10834618 0.020164892
-0.0660418 -0.021883218 -0.10707428 -0.065327935 0.1366434 0.10641803 0.110508226 0.07514326
0.15413383 0.22271134 0.11396384 0.11254697 0.008945691 0.11801115 0.118744135 0.16684835
0.21283098 -0.01900702 0.18970662 0.25721422 0.1576822 0.11672852 -0.050063353 -0.055681624
0.11432761 0.08453475 0.060503397 -0.013767065 -0.087365545 -0.056560326 -0.10115128 0.0071959486
0.039328013 -0.101087384 0.03485766 -0.13864967 -0.03916147 -0.010051262 -0.06445895 -0.004672886
-0.12524451 -0.14628227 -0.045629397 -0.0035953673 -0.11950204 0.09329799 0.052640714 -0.054344986
-0.008103094 -0.069469415 0.0013220699 -0.015694706 -0.11327518 -0.006099789 0.06986421 0.060782585
-0.10103308 0.0642423 -0.041995075 -0.069394976 0.016247762 -0.023878764 -0.026924115 -0.11943629
-0.03186201 0.08445258 -0.05396397 0.10632689 -0.0849234 -0.08982602 -0.08692717 0.08489339
-0.1153675 -0.02452362 0.05774309 -0.05676345 -0.11156439 -0.005815188 -0.106822416 0.014922723
-0.033120446 -0.02283955 0.0024824855 0.065891065 -0.05983538 0.04072802 0.002964578 -0.08081324
0.05386999 0.08096915 -0.10249903 -0.110960774 -0.052328855 -0.019659998 0.062946394 -0.09758305
-0.037334096 -0.06331928 -0.03824631 0.013113401 0.008629396 -0.018455232 0.17787145 -0.16623251
-0.13494295 0.0965837 0.1758845 0.1935946 -0.20878133 -0.24665207 0.2027936 0.058300488
0.08121817 -0.104124084 -0.20833226 0.12851492 0.11128285 0.09276995 -0.12567776 -0.08774426
0.10091058 0.020898186 0.08991788 -0.071733 0.002858182 -0.0054054023 0.1005402 0.043338783
-0.23162028 -0.060467295 -0.018919652 0.17001788 0.06275836 -0.28455862 -0.27647352 0.1712821
0.18213661 0.06515464 -0.19331925 -0.14840224 0.1041596 0.06122097 0.07182591 -0.08373297
0.026662245 -0.0077652917 0.012904356 0.05108872 -0.027014676 -0.10961892 0.052519195 -0.1121871
-0.011404016 -0.030424444 -0.20282072 -0.03355577 0.16441596 0.1609441 -0.18399782 -0.12499489
0.03307532 0.23204866 0.21132703 -0.31588045 -0.17432593 0.22473125 0.11105144 -0.028397562
-0.107117034 -0.096916705 0.0072109345 0.14748298 -0.050872248 0.08662883 -0.02713062 0.09678768
0.04804904 -0.14453416 -0.2673579 -0.01851034 -0.18110493 0.04301948 -0.02233466 -0.15312535
-0.21041873 -0.13928688 -0.0074068094 0.17820483 0.17961775 0.19553787 0.054483034 0.056422926
-0.05503113 0.16950767 0.18056077 0.18739623 0.000574122 -0.047624264 0.053233974 -0.17804466
-0.02720883 -0.023781216 -0.07017598 -0.2075815 -0.10005182 0.07430485 0.004194167 -0.11521126
00000000: 7a1a a33d 2126 e9bc 6eb9 2d3d 200a e53c
00000010: 3ac1 9a3c 4696 483d eb5e 2a3c 2e97 98bd
00000020: fb99 01bd ae54 e73c 7b89 14bd 39b3 0e3b
00000030: c140 91bd cfcc 11bb f7b9 89bd e330 bb3d
00000040: 34ad ebbd f1f1 0bbe 239a c5bd 0964 2bbe
00000050: 48a9 aebd 42f7 643c 968e 6cbd 7a01 3fbe
00000060: b0e3 91bd 7b92 50bd d05f 013d cccf 80bc
00000070: 77a1 dd3b 5e6c d73c d928 66bd 31ad 31bd
00000080: bea7 c93b 8ee7 8d3d 4b8b 3ebd ca20 fcbc
00000090: ccac c8bc 3bb3 593d 80ec a83d 666f b2bd
000000a0: a1bf 05bd c670 4f3d 0f20 a7bd e37f 993d
000000b0: b058 93bc cf9f cd3d 9ae4 ddbd d830 a53c
000000c0: ec40 87bd 6f44 b3bc c349 dbbd a7ca 85bd
000000d0: 3fec 0b3e b2f1 d93d 2352 e23d b6e4 993d
000000e0: 42d5 1d3e 710e 643e e065 e93d 077f e63d
000000f0: f390 123c d4af f13d 2030 f33d 4bda 2a3e
00000100: 5df0 593e 9cb4 9bbc 7442 423e 95b1 833e
00000110: 7177 213e 5d0f ef3d 3b0f 4dbd 6a12 64bd
00000120: 9824 ea3d 8e20 ad3d 69d2 773d 418f 61bc
00000130: b5ec b2bd cdab 67bd 6728 cfbd fecb eb3b
00000140: 6916 213d e706 cfbd e8c6 0e3d 2efa 0dbe
00000150: c767 20bd 0cae 24bc 0e03 84bd 021f 99bb
00000160: 1940 00be 05cb 15be e4e5 3abd 41a0 6bbb
00000170: 7cbd f4bd 0413 bf3d ca9d 573d d998 5ebd
00000180: d7c2 04bc fb45 8ebd 4e49 ad3a 2f92 80bc
00000190: d1fc e7bd bde0 c7bb f814 8f3d 29f7 783d
000001a0: 6eea cebd 7891 833d 0703 2cbd f41e 8ebd
000001b0: 071a 853c 669d c3bc f68f dcbc 039b f4bd
000001c0: bd81 02bd 79f5 ac3d 5309 5dbd eac1 d93d
000001d0: 52ec adbd b4f6 b7bd df06 b2bd 96dc ad3d
000001e0: cc45 ecbd c2e5 c8bc 0584 6c3d cb80 68bd
000001f0: df7b e4bd 558d bebb b6c5 dabd 707e 743c
00000200: 4ea9 07bd 021a bbbc 32b1 223b e5f1 863d
00000210: f215 75bd 6dd2 263d 5e49 423b 6981 a5bd
00000220: c7a6 5c3d 27d3 a53d 03eb d1bd 673f e3bd
00000230: c856 56bd 010e a1bc 0aea 803d 9fd9 c7bd
00000240: a3eb 18bd 8aad 81bd 2aa8 1cbd 97d9 563c
00000250: 4f62 0d3c 6d2f 97bc ef23 363e db38 2abe
00000260: 7c2e 0abe adcd c53d 111b 343e aa3d 463e
00000270: c6ca 55be 5c92 7cbe 20a9 4f3e 7ecc 6e3d
00000280: b655 a63d 023f d5bd 0d55 55be 6a99 033e
00000290: 43e8 e33d 2cfe bd3d acb1 00be 43b3 b3bd
000002a0: 35aa ce3d ac32 ab3c de26 b83d c0e8 92bd
000002b0: 5650 3b3b cd1f b1bb 05e8 cd3d 0284 313d
000002c0: de2d 6dbe 8eac 77bd 63fd 9abc 2b19 2e3e
000002d0: 7487 803d abb1 91be f08d 8dbe 9364 2f3e
000002e0: 0582 3a3e cc6f 853d 7bf5 45be c2f6 17be
000002f0: a151 d53d d7c2 7a3d 7619 933d 317c abbd
00000300: c86a da3c fd73 febb cb6c 533c 6842 513d
00000310: e24d ddbc e27f e0bd 5e1e 573d 5ac2 e5bd
00000320: e9d7 3abc af3c f9bc 3cb0 4fbe c671 09bd
00000330: a85c 283e 88ce 243e ed69 3cbe 52fd ffbd
00000340: fd79 073d 2a9e 6d3e 1d66 583e 15bb a1be
00000350: 7f82 32be f31f 663e f06e e33d 01a2 e8bc
00000360: 2d60 dbbd 447c c6bd b449 ec3b c705 173e
00000370: 6b5f 50bd 756a b13d 0941 debc 9f38 c63d
00000380: 12cf 443d c300 14be 22e3 88be ffa2 97bc
00000390: 9273 39be 3235 303d 2df7 b6bc e4cc 1cbe
000003a0: 0278 57be 38a1 0ebe d2b4 f2bb 547b 363e
000003b0: b7ed 373e 143b 483e 9a29 5f3d ba1b 673d
000003c0: 5268 61bd 6b93 2d3e ece4 383e cce4 3f3e
000003d0: ad80 163a a911 43bd de0b 5a3d 5751 36be
000003e0: 0de5 debc d3d0 c2bc 6db8 8fbd 3f90 54be
000003f0: f8e7 ccbd 242d 983d 396f 893b e2f3 ebbd

conv1.bias f4 [6]
-0.13670209 -0.11547225 -0.018612508 0.012957562 0.0639083 -0.11659268
00000000: a2fb 0bbe b77c ecbd 4279 98bc f44b 543c
00000010: 5be2 823d 25c8 eebd

conv2.weight f4 [16, 6, 5, 5]
0.055231325 0.08914404 0.042002395 -0.04653748 0.011689005 -0.10830597 -0.01078489 -0.061103947
-0.09828351 0.015670357 -0.014379372 -0.05677159 -0.1252342 0.008983822 -0.031540316 -0.018558096
-0.012416397 -0.06178506 0.055752758 0.08418921 0.070063174 -0.024823576 0.055186067 0.0005809784
0.045337196 0.043214172 -0.064647734 0.049235895 -0.028209165 0.017172344 -0.023749102 -0.036822174
-0.059290566 -0.012547625 -0.012236187 -0.048920788 0.049245585 -0.03424744 -0.073370755 0.05039427
0.07465128 0.03826137 -0.018189775 0.051498882 0.07004663 0.06363237 -0.004714725 0.052553944
-0.070515655 -0.026843945 -0.04636393 0.023072125 -0.04133981 -0.080013916 -0.11633237 -0.102587715
-0.15849493 -0.2377492 -0.18103127 -0.091353334 -0.058925737 -0.18989684 -0.28758797 -0.28184417
-0.1429589 -0.09628489 -0.026875783 -0.08982438 -0.042939723 -0.0151405465 -0.013613494 0.08758106
0.05608388 0.044901278 -0.026713978 -0.0070369905 0.044175863 0.0044487067 0.10133806 0.033088543
0.00057925907 0.024021754 0.14946838 0.0354871 -0.004662 0.08417543 0.2193737 0.16721249
0.2002088 0.15843539 0.086149246 0.1949852 0.08643577 0.13008575 0.033089563 -0.016649665
0.111510545 0.06405515 0.030655574 -0.022609996 0.0049516163 0.13411735 0.0650041 0.040815115
0.006135008 0.1335882 0.24385214 0.21536224 0.2391951 0.11652194 0.13616724 0.19385624
0.32744658 0.31930938 0.084754005 -0.051993225 -0.06751397 -0.14994049 -0.13150379 -0.09695656
-0.168801 -0.13893902 -0.071984395 -0.2199642 -0.15883769 0.07714773 0.11382774 0.03610807
0.076256745 0.044421185 0.05514305 0.11948044 0.06632634 0.1580856 0.12004854 0.16223902
0.03606897 0.14063847 0.04692683 0.049678154 0.016376622 -0.029329026 -0.0028262786 -0.05810742
-0.13812143 -0.05223642 -0.18609607 -0.18078117 -0.24277936 -0.14815868 0.09494481 0.12752004
0.1416433 0.07969138 0.022270575 -0.04139732 -0.03265853 0.096426755 0.03139579 0.09063495
-0.2205311 -0.20757903 -0.18241376 -0.038470652 0.06038501 -0.28510663 -0.12692717 -0.13404715
-0.012420168 0.046494078 -0.13671218 -0.0018256102 0.008855588 0.10984663 0.21836194 0.013890938
0.010866392 -0.033498835 0.038752727 0.0011497965 -0.04085193 -0.056078915 0.023741452 0.056529388
0.0062650125 0.009589567 0.027942123 -0.03888917 -0.049460087 0.030632483 -0.01872919 -0.008404263
-0.051190384 0.03596003 0.05528338 -0.09485063 -0.06480723 0.079781435 0.028674532 0.051121406
0.05931695 -0.06296517 0.0026635088 0.044731505 0.14156125 -0.16596705 -0.12717782 -0.07219906
-0.051562455 0.06384665 -0.27123514 -0.35588008 -0.45101395 -0.31892118 -0.04473697 -0.17438845
-0.61896974 -0.72544795 -0.45024797 -0.012823137 -0.26833233 -0.49226543 -0.48680303 -0.26148248
0.08408453 0.08424021 -0.042025477 0.0075003533 -0.049234726 0.07785625 -0.0048702466 0.042567857
0.024341024 0.09845929 0.16431168 0.28449562 0.3228024 0.35574898 0.2802373 0.11775384
0.14559697 -0.068300135 -0.14247207 -0.03785814 -0.028631272 -0.18146531 -0.23535989 -0.26863652
-0.23030032 -0.22949715 0.14739904 0.11808498 0.092445835 0.04896783 0.11361344 -0.033196386
00000000: 3e3a 623d 2791 b63d b40a 2c3d 169e 3ebd
00000010: 3e83 3f3c 85cf ddbd 1bb3 30bc 2248 7abd
00000020: dd48 c9bd 1f5f 803c 7597 6bbc 5489 68bd
00000030: 653d 00be e130 133c 6b30 01bd 2607 98bc
00000040: 256e 4bbc 5512 7dbd 015d 643d 646b ac3d
00000050: 487d 8f3d d05a cbbc c90a 623d cd4c 183a
00000060: 7fb3 393d 5801 313d 0866 84bd 94ab 493d
00000070: e816 e7bc 04ad 8c3c 7a8d c2bc d9d2 16bd
00000080: aada 72bd 8e94 4dbc 4a7a 48bc 2a61 48bd
00000090: bdb5 493d 0b47 0cbd 6843 96bd 396a 4e3d
000000a0: c5e2 983d f4b7 1c3d b902 95bc 7ef0 523d
000000b0: 9c74 8f3d b051 823d fb7d 9abb ce42 573d
000000c0: 836a 90bd d5e7 dbbc 1be8 3dbd c101 bd3c
000000d0: ef53 29bd 56de a3bd aa3f eebd 8219 d2bd
000000e0: 7f4c 22be 8774 73be 4360 39be 7517 bbbd
000000f0: 1d5c 71bd 5174 42be bb3e 93be e14d 90be
00000100: d163 12be 0331 c5bd 9a2a dcbc d8f5 b7bd
00000110: 90e1 2fbd 0e10 78bc 220b 5fbc b35d b33d
00000120: 36b8 653d 67ea 373d 46d7 dabc 8e96 e6bb
00000130: c0f1 343d 75c6 913b 548a cf3d da87 073d
00000140: 6bd9 173a 45c9 c43c 3d0e 193e ec5a 113d
00000150: b1c3 98bb 2b64 ac3d 80a3 603e c039 2b3e
00000160: 8903 4d3e e33c 223e 046f b03d 33aa 473e
00000170: 3d05 b13d 3335 053e ec88 073d e164 88bc
00000180: a45f e43d 592f 833d 6621 fb3c 9938 b9bc
00000190: 2b41 a23b 0f56 093e df20 853d c02d 273d
000001a0: 2d08 c93b 58cb 083e 60b4 793e eb87 5c3e
000001b0: 8fef 743e 0ea3 ee3d 6d6f 0b3e 4082 463e
000001c0: 14a7 a73e 857c a33e 8293 ad3d d9f6 54bd
000001d0: c444 8abd 008a 19be eea8 06be 2991 c6bd
000001e0: 2bda 2cbe 0846 0ebe 8e6c 93bd 4c3e 61be
000001f0: 59a6 22be a1ff 9d3d 851e e93d 0ee6 133d
00000200: 7f2c 9c3d fdf2 353d aedd 613d 29b2 f43d
00000210: 1bd6 873d 31e1 213e 02dc f53d fc21 263e
00000220: 0ebd 133d 8803 103e 5936 403d 527b 4b3d
00000230: 4428 863c 6d43 f0bc 1639 39bb 0c02 6ebd
00000240: b46f 0dbe dbf5 55bd f88f 3ebe b31e 39be
00000250: 279b 78be e9b6 17be 6d72 c23d 9d94 023e
00000260: f10a 113e 3c35 a33d c870 b63c 3c90 29bd
00000270: f3c4 05bd 647b c53d df98 003d d19e b93d
00000280: e8d2 61be 998f 54be acca 3abe 6793 1dbd
00000290: 4656 773d 7ff9 91be 32f9 01be a843 09be
000002a0: f67d 4bbc 9370 3e3d 47fe 0bbe 5049 efba
000002b0: 0717 113c 45f7 e03d 469a 5f3e d196 633c
000002c0: f408 323c 1336 09bd 2ebb 1e3d c5b4 963a
000002d0: 5a54 27bd 01b3 65bd 6f7d c23c 5c8b 673d
000002e0: bc4a cd3b 8f1d 1d3c e1e6 e43c 404a 1fbd
000002f0: a996 4abd f9f0 fa3c f56d 99bc 09b2 09bc
00000300: 02ad 51bd d34a 133d d370 623d 0c41 c2bd
00000310: a7b9 84bd 7364 a33d dae6 ea3c ae64 513d
00000320: 55f6 723d e2f3 80bd 438e 2e3b 6238 373d
00000330: 6ff5 103e 44f3 29be e73a 02be 1add 93bd
00000340: 2733 53bd 08c2 823d 55df 8abe ea35 b6be
00000350: 4deb e6be a349 a3be 1d3e 37bd e392 32be
00000360: cd74 1ebf f5b6 39bf e786 e6be 2318 52bc
00000370: db62 89be 370a fcbe 3f3e f9be 08e1 85be
00000380: 8334 ac3d 2286 ac3d e822 2cbd 86c5 f53b
00000390: 5aaa 49bd 1973 9f3d 9796 9fbb a25b 2e3d
000003a0: d466 c73c 06a5 c93d 5241 283e 69a9 913e
000003b0: 5b46 a53e bb24 b63e 437b 8f3e ed28 f13d
000003c0: 5f17 153e f1e0 8bbd 33e4 11be 2311 1bbd
000003d0: 218c eabc 0bd2 39be 2f02 71be ba8a 89be
000003e0: d9d3 6bbe 4d01 6bbe c6ef 163e 8ad6 f13d
000003f0: 3e54 bd3d 7e92 483d 2aae e83d eff8 07bd

conv2.bias f4 [16]
-0.21544524 0.13614276 0.22581984 0.04149947 0.25470802 -0.089659765 0.3009601 -0.0742685
0.023351632 0.09995506 0.35885233 0.1355559 0.36482745 0.17165875 -0.5734064 0.23532599
00000000: ad9d 5cbe 0269 0b3e 513d 673e 59fb 293d
00000010: 1769 823e 8a9f b7bd 7117 9a3e 151a 98bd
00000020: ec4b bf3c 3db5 cc3d 7ebb b73e 2acf 0a3e
00000030: aaca ba3e 50c7 2f3e c3ca 12bf 4cf9 703e

fc1.weight f4 [256, 400]
-0.005868922 -0.02209856 -0.018372204 -0.07344312 -0.085290335 -0.03624829 -0.021450752 -0.041832987
-0.01786181 -0.042823445 -0.052276704 -0.016975876 -0.0001691545 -0.009100405 -0.08707862 -0.04754393
-0.050752606 -0.012543329 -0.01565795 -0.023658926 0.009347492 -0.061170142 -0.009672573 -0.024615102
-0.01428055 -0.053509567 0.029343352 -0.012044752 -0.07710225 -0.014371453 -0.0016512637 -0.00074873294
-0.025270935 -0.06148186 -0.007343262 -0.006624618 0.031328004 -0.035391152 -0.042280994 0.0075094476
-0.036992893 -0.019715536 -0.023745622 -0.06301546 -0.019687679 -0.028099352 -0.00030374547 0.00818501
0.017725546 -0.020916443 -0.04047426 0.029527776 -0.016282747 -0.029762125 -0.046040792 0.03248706
-0.014216299 -0.0268643 0.027606169 0.034221258 0.009569619 -0.018983824 -0.018542517 -0.049316544
-0.036397733 -0.054613132 0.02861083 -0.011548496 0.003965886 -0.02767427 0.012843815 0.023402514
-0.025933694 -0.011823227 0.0010922707 -0.03627785 -0.026953416 -0.04250173 -0.037428156 -0.04532919
-0.023970658 -0.01322071 0.001911595 0.008000039 0.005842604 -0.037087724 -0.036495507 -0.01139041
0.023074219 -0.012095138 0.01618374 -0.047201604 -0.0027056083 -0.03831608 -0.0056222165 0.0008220594
-0.028487524 -0.018605031 0.0010591315 -0.0037531008 -0.04390641 -9.234008e-05 -0.03405734 0.0143823745
0.011711606 -0.00026453089 -0.026605327 -0.008023936 -0.0005238158 -0.08537552 -0.04254953 0.003925592
-0.051931836 -0.01611247 -0.02047371 -0.05988484 -0.0036989446 -0.09246583 -0.017378211 -0.019713182
-0.051702026 -0.031177424 0.00028615855 -0.024621557 0.02814647 -0.024409164 -0.017068656 -0.048289772
0.016572485 -0.07218397 -0.07180428 -0.01708008 -0.0089159105 -0.017528253 -0.06813069 0.009741186
0.0073416065 -0.035824783 -0.07814761 -0.06269199 -0.05546557 -0.06957022 -0.04142331 -0.05905382
-0.039953735 -0.05775519 -0.047484398 -0.09341473 -0.023757221 -0.0149803385 -0.07978483 0.009457719
-0.07123025 -0.04032163 -0.055336524 -0.020816943 -0.0040564314 -0.031541135 0.0055895895 -0.07666005
-0.049707875 0.0017921332 -0.016339166 -0.014769243 -0.08603661 -0.06517415 -0.05868904 -0.05100486
-0.010674042 -0.058726903 0.036798395 0.008198013 -0.07048713 -0.028612535 -0.07416408 -0.0012489618
-0.03156313 0.002619869 -0.035298947 0.018546516 -0.031605296 0.021613274 -0.034002554 0.028396655
0.0020793641 -0.08648865 -0.049032364 0.000950499 -0.078309424 -0.030507145 -0.023574492 -0.01923047
0.0070464765 -0.020481596 -0.0054605813 -0.011829949 0.017173497 0.008319585 -0.04780685 -0.0020119122
-0.03842101 -0.051710926 -0.016772037 0.01763883 -0.055110645 0.008194615 0.0139897885 -0.053712025
0.0074781026 -0.041725904 0.03772173 -0.04053204 0.008320449 -0.01742962 -0.015312158 0.0034316145
-0.05824379 -0.0060495 -0.0566767 0.02066034 -0.024651404 -0.017057646 0.01419635 -0.005033188
-0.024824029 -0.03167611 -0.056107506 0.010300075 -0.023535999 -0.03741354 -0.0038015859 -0.049929157
-0.04960951 -0.052867983 0.020481955 -0.010069137 0.009828862 -0.014153792 0.039711587 0.010484093
-0.025040641 -0.010174065 0.016674604 -0.038549975 -0.07521413 0.025324842 -0.044608247 0.024385381
-0.031478595 0.007335279 -0.0498497 -0.021775428 0.01773378 -0.016920911 -0.024874259 -0.04033578
00000000: 1650 c0bb 0a08 b5bc 4e81 96bc 5969 96bd
00000010: b3ac aebd 1679 14bd 7db9 afbc 1159 2bbd
00000020: ee52 92bc a367 2fbd 1920 56bd fe10 8bbc
00000030: 115f 31b9 dd19 15bc 4756 b2bd 6dbd 42bd
00000040: f7e1 4fbd 8982 4dbc 1a45 80bc 5dd0 c1bc
00000050: 3926 193c 8b8d 7abd b679 1ebc 9ca5 c9bc
00000060: f8f8 69bc d92c 5bbd 7861 f03c 5a57 45bc
00000070: c9e7 9dbd 3e76 6bbc 376f d8ba 9e46 44ba
00000080: fe04 cfbc 67d4 7bbd bf9f f0bb 5313 d9bb
00000090: cb51 003d 50f6 10bd d62e 2dbd d011 f63b
000000a0: dc85 17bd 7a82 a1bc 2e86 c2bc 400e 81bd
000000b0: 0e48 a1bc 9d30 e6bc 0740 9fb9 6c1a 063c
000000c0: 2a35 913c f658 abbc 56c8 25bd 3ce4 f13c
000000d0: 6563 85bc b3cf f3bc 4595 3cbd 2711 053d
000000e0: 7beb 68bc 8512 dcbc 5526 e23c 972b 0c3d
000000f0: e4c9 1c3c f783 9bbc 7ae6 97bc 2500 4abd
00000100: ca15 15bd 05b2 5fbd 4261 ea3c e735 3dbc
00000110: 43f4 813b 27b5 e2bc dd6e 523c a1b6 bf3c
00000120: e672 d4bc 35b6 41bc 862a 8f3a 1598 14bd
00000130: 69cd dcbc 4b16 2ebd 444e 19bd 1aab 39bd
00000140: 1d5e c4bc ad9b 58bc 7c8e fa3a 9812 033c
00000150: 5173 bf3b 4ce9 17bd 507c 15bd d89e 3abc
00000160: 2506 bd3c b02a 46bc c393 843c 7856 41bd
00000170: 9350 31bb 52f1 1cbd 923a b8bb 797f 573a
00000180: ab5e e9bc 9469 98bc 8ed2 8a3a 95f6 75bb
00000190: 35d7 33bd b4a6 c1b8 b67f 0bbd 0da4 6b3c
000001a0: 09e2 3f3c bcb0 8ab9 6af3 d9bc d476 03bc
000001b0: af50 09ba 5cd9 aebd 6a48 2ebd 41a2 803b
000001c0: 7ab6 54bd 4cfe 83bc 7bb8 a7bc ce49 75bd
000001d0: fe69 72bb ba5e bdbd c05c 8ebc 8a7d a1bc
000001e0: 81c5 53bd cc67 ffbc 8d07 9639 26b3 c9bc
000001f0: 6d93 e63c baf5 c7bc 91d3 8bbc 7fcb 45bd
00000200: 05c3 873c 30d5 93bd 1f0e 93bd 86eb 8bbc
00000210: 0a14 12bc 6997 8fbc 1a88 8bbd 7f99 1f3c
00000220: dc91 f03b 02bd 12bd db0b a0bd a864 80bd
00000230: de2f 63bd d57a 8ebd 7dab 29bd 6be2 71bd
00000240: 87a6 23bd b590 6cbd 007f 42bd 3950 bfbd
00000250: 819e c2bc 1870 75bc 3b66 a3bd 8cf4 1a3c
00000260: 2ae1 91bd 4b28 25bd 8da8 62bd 4b88 aabc
00000270: d0eb 84bb 4731 01bd e028 b73b f2ff 9cbd
00000280: 7c9a 4bbd 03e6 ea3a b7d9 85bc b2fa 71bc
00000290: f633 b0bd 067a 85bd eb63 70bd 79ea 50bd
000002a0: 2de2 2ebc 9f8b 70bd eab9 163d f550 063c
000002b0: 8e5b 90bd d664 eabc 56e3 97bd 34b4 a3ba
000002c0: 5748 01bd 1cb2 2b3b a195 10bd ddee 973c
000002d0: 8e74 01bd 520e b13c 4346 0bbd 1aa0 e83c
000002e0: f145 083b f620 b1bd 29d6 48bd e82a 793a
000002f0: b160 a0bd 1fea f9bc 4b1f c1bc 3889 9dbc
00000300: 21e6 e63b 05c9 a7bc adee b2bb 67d2 41bc
00000310: 6faf 8c3c de4e 083c 1ed1 43bd 49da 03bb
00000320: 595f 1dbd d6ce 53bd 8365 89bc 4f7f 903c
00000330: b3bb 61bd b542 063c 6d35 653c 2401 5cbd
00000340: df0a f53b c8e8 2abd 1a82 1a3d ed04 26bd
00000350: 7e52 083c 90c8 8ebc d8df 7abc f0e4 603b
00000360: 0a91 6ebd e23a c6bb d425 68bd e03f a93c
00000370: bef1 c9bc 7abc 8bbc cf97 683c 71ed a4bb
00000380: c35b cbbc cfbe 01bd fcd0 65bd a5c1 283c
00000390: 91ce c0bc f13e 19bd 0724 79bb 8482 4cbd
000003a0: 5733 4bbd 198c 58bd c6c9 a73c 06f9 24bc
000003b0: 3c09 213c 4ee5 67bc 9ea8 223d 79c5 2b3c
000003c0: 0822 cdbc 1fb1 26bc 2e99 883c 94e6 1dbd
000003d0: de09 9abd 0b76 cf3c 23b7 36bd dac3 c73c
000003e0: b3ef 00bd c85c f03b 332f 4cbd 6262 b2bc
000003f0: 6f46 913c b99d 8abc 1ac5 cbbc 2137 25bd

fc1.bias f4 [256]
-0.067964375 0.40686464 -0.020192236 0.5601889 0.32642844 0.5485128 0.30517495 -0.024168009
0.2644713 0.26712975 0.011573273 0.4868423 -0.007904835 -0.004155458 -0.0066258195 -0.05810365
0.5502369 0.12907805 0.41211239 -0.048312176 -0.0022303807 -0.014022633 -0.15147543 0.11675414
0.47310758 -0.061235834 -0.024789715 -0.06351087 -0.021879952 0.029570656 0.24968904 -0.080506064
0.061235186 -0.02615214 0.19100611 -0.06977229 -0.04045304 -0.067368045 -0.0008652818 0.0043846266
-0.3830874 0.033492222 0.011982577 -0.013066291 0.0017226258 -0.052745957 -0.053467266 0.00650395
0.0009477337 -0.004474782 0.40153393 -0.008782673 -0.0031310045 0.26442665 -0.009631939 -0.07249387
-0.03502903 0.24783216 -0.015957287 -0.059905194 -0.015170094 -0.028218418 0.035306145 -0.058271
-0.024531318 -0.016718205 0.16200972 -0.06509079 0.0813933 0.013399201 -0.056662343 -0.024025895
0.121652216 0.13206697 0.1065229 0.43682206 -0.016973542 0.020533578 0.18180847 -0.03669117
0.23065308 0.4893323 0.5484194 0.37457433 -0.04662945 0.07487642 -0.0076383343 -0.047742434
-0.019833488 -0.032958772 -0.04620235 -0.019237395 -0.05211098 -0.03630086 -0.11918725 0.6835211
-0.019921614 0.26919904 -0.048000712 -0.1528674 0.010378938 0.36414972 -0.036506437 -0.057338923
0.23637441 -0.07666364 -0.05265475 -0.06618436 0.3638399 -0.025952322 0.5709607 -0.006951263
0.21247911 -0.0544422 -0.053232793 -0.24487598 0.013018688 0.561362 -0.09171349 0.04213965
-0.036066487 -0.37452853 -0.034826506 -0.21132025 -0.024461972 0.452192 0.09074745 -0.050607625
0.64077795 0.007158293 0.023780271 -0.06881958 -0.04319731 0.49961415 -0.085347146 -0.0437942
-0.14287658 0.026664946 0.0317601 0.53841597 -0.013076795 0.2560148 -0.03130995 0.0015282537
-0.03476965 -0.017362017 0.29923686 -0.1989909 0.65070695 -0.02451481 -0.007983078 -0.044613525
0.03843724 -0.21374738 0.047364637 -0.004544422 -0.006425226 -0.29816508 0.0228071 -0.26829374
0.3890236 0.007208792 -0.06977667 -0.045914702 -0.07167013 0.17090534 0.16009554 0.014930717
0.03129427 0.041551854 0.28047895 -0.02302611 0.2197048 -0.024173563 -0.06873697 -0.056719247
-0.056766573 0.024953455 -0.08843115 0.01763888 0.27997437 -0.09240527 0.15557094 -0.05851079
-0.044801135 -0.051201757 0.027546639 0.2648828 -0.0026470886 0.37476814 0.47419548 -0.051962964
0.6555374 -0.05481543 -0.028565684 0.6054527 0.06770626 0.01699946 -0.033516154 0.2115712
0.39857298 0.008751913 0.23429835 0.31717232 -0.10597222 -0.057305172 0.5640374 0.011121362
0.0062963883 -0.04849927 0.06597986 0.2582303 -0.30514443 0.56369716 0.18366982 -0.028224975
-0.054999053 -0.057112064 0.0142650455 -0.020594731 0.3604131 -0.033565488 0.052293845 -0.007039878
0.034428623 0.021954361 -0.044356566 0.4691373 -0.043153685 -0.06429542 0.18425664 -0.058410477
-0.045377564 0.22630338 0.38571137 -0.0221065 -0.010382212 -0.032273486 -0.036036912 -0.046633206
0.70071715 -0.03355645 -0.03442939 -0.05857662 0.24536401 -0.124629 0.029599044 -0.05115893
0.10080205 -0.3073006 -0.01668341 0.03932735 -0.12866859 -0.017329616 0.02652295 0.011025964
00000000: e830 8bbd 9050 d03e 306a a5bc 8a68 0f3f
00000010: a121 a73e 566b 0c3f e43f 9c3e fdfb c5bc
00000020: c868 873e 3bc5 883e d39d 3d3c 6543 f93e
00000030: 4883 01bc 822a 88bb 671d d9bb 18fe 6dbd
00000040: 53dc 0c3f 092d 043e 6500 d33e fde2 45bd
00000050: 942b 12bb 30bf 65bc 601c 1bbe cb1c ef3d
00000060: 283b f23e 6dd2 7abd cd13 cbbc fd11 82bd
00000070: 963d b3bc 293e f23c 7cae 7f3e 5de0 a4bd
00000080: bfd1 7a3d 033d d6bc 1b97 433e c6e4 8ebd
00000090: 16b2 25bd 42f8 89bd 14d4 62ba eaac 8f3b
000000a0: 0824 c4be 242f 093d 9252 443c ff13 56bc
000000b0: bbc9 e13a 250c 58bd 7e00 5bbd 161f d53b
000000c0: 5571 783a 31a1 92bb db95 cd3e 33e5 0fbc
000000d0: 8a31 4dbb ee62 873e 48cf 1dbc ab77 94bd
000000e0: 9a7a 0fbd b7c7 7d3e dbb8 82bc 265f 75bd
000000f0: fc8b 78bc 502a e7bc 2d9d 103d 92ad 6ebd
00000100: e7f5 c8bc 9ef4 88bc e0e5 253e 524e 85bd
00000110: 88b1 a63d 5388 5b3c c616 68bd f4d1 c4bc
00000120: cc24 f93d 903c 073e ae28 da3d 24a7 df3e
00000130: 190c 8bbc 0936 a83c 002c 3a3e 7b49 16bd
00000140: 5230 6c3e c389 fa3e 3765 0c3f 35c8 bf3e
00000150: 86fe 3ebd cf58 993d fe4a fabb 928d 43bd
00000160: d779 a2bc c7ff 06bd ad3e 3dbd be97 9dbc
00000170: 5372 55bd 36b0 14bd 7218 f4bd 3dfb 2e3f
00000180: a732 a3bc 75d4 893e 659c 44bd 4689 1cbe
00000190: 6c0c 2a3c d571 ba3e c687 15bd 38dc 6abd
000001a0: 220c 723e d401 9dbd 82ac 57bd aa8b 87bd
000001b0: 3949 ba3e f799 d4bc 7b2a 123f 6cc7 e3bb
000001c0: 2094 593e c9fe 5ebd a10a 5abd c5c0 7abe
000001d0: 564c 553c 6cb5 0f3f 48d4 bbbd a09a 2c3d
000001e0: 74ba 13bd 34c2 bfbe 3da6 0ebd 5664 58be
000001f0: 7964 c8bc b685 e73e cdd9 b93d f149 4fbd
00000200: 060a 243f 1d90 ea3b d8ce c23c 48f1 8cbd
00000210: aaef 30bd 6dcd ff3e 7cca aebd 8c61 33bd
00000220: 3d4e 12be 7270 da3c e116 023d a1d5 093f
00000230: 0e40 56bc 5f14 833e dd3e 00bd af4f c83a
00000240: 9f6a 0ebd ca3a 8ebc 9335 993e 45c4 4bbe
00000250: bb94 263f 48d3 c8bc 75cb 02bc acbc 36bd
00000260: 5e70 1d3d 98e0 5abe 6c01 423d 60e9 94bb
00000270: b48a d2bb 18a9 98be f5d5 ba3c cc5d 89be
00000280: 1a2e c73e bb37 ec3b 12e7 8ebd 0e11 3cbd
00000290: cac7 92bd cf01 2f3e 16f0 233e f79f 743c
000002a0: 6c2e 003d 4732 2a3d f09a 8f3e 41a1 bcbc
000002b0: 4cfa 603e a307 c6bc f8c5 8cbd 7152 68bd
000002c0: 1184 68bd 306b cc3c 641b b5bd 6a7f 903c
000002d0: cd58 8f3e f93e bdbd fd4d 1f3e 03a9 6fbd
000002e0: 6581 37bd efb8 51bd 7da9 e13c b89e 873e
000002f0: c77a 2dbb 9ce1 bf3e c0c9 f23e 1ed7 54bd
00000300: 4dd1 273f 2586 60bd 9502 eabc f3fe 1a3f
00000310: 94a9 8a3d 7442 8b3c 3c48 09bd 1fa6 583e
00000320: c211 cc3e 2f64 0f3c e8eb 6f3e 6964 a23e
00000330: f707 d9bd d4b8 6abd c164 103f 6036 363c
00000340: ef51 ce3b 2ca7 46bd 7320 873d c336 843e
00000350: e43b 9cbe 754e 103f f113 3c3e 1038 e7bc
00000360: b046 61bd 57ee 69bd f0b7 693c 48b6 a8bc
00000370: 1188 b83e f77b 09bd 1232 563d c7ae e6bb
00000380: 0705 0d3d a2d9 b33c 3baf 35bd c432 f03e
00000390: ebc1 30bd 51ad 83bd c6ad 3c3e d33f 6fbd
000003a0: d3dd 39bd 13bc 673e f67b c53e b118 b5bc
000003b0: 271a 2abc 3431 04bd 719b 13bd 7602 3fbd
000003c0: 3362 333f 7d72 09bd d505 0dbd 0aee 6fbd
000003d0: b440 7b3e 7d3d ffbd b279 f23c 078c 51bd
000003e0: 4e71 ce3d 8156 9dbe a6ab 88bc b715 213d
000003f0: b3c1 03be d7f6 8dbc a846 d93c 3fa6 343c

fc2.weight f4 [10, 256]
0.06463817 -0.08205597 -0.0123680895 -0.106669135 0.24431513 -0.1823886 0.11260738 0.008522201
0.10554281 0.0775988 -0.044280794 -0.25820312 -0.002536616 -0.11260826 -0.09138847 -0.033245295
-0.13945618 -0.0007882775 -0.15866806 -0.039027173 -0.05979278 -0.062325377 0.13636157 -0.119436175
-0.046612002 -0.09385682 -0.059909306 -0.022767253 0.067835845 0.10176357 0.031567506 0.036024746
0.03907459 -0.03107325 -0.03764949 -0.03532586 -0.09173049 -0.05521756 -0.06872698 -0.13954498
0.09853221 0.11034648 0.023789946 -0.010166283 0.031150175 0.107839935 0.08155111 -0.113757074
0.009631037 0.053911857 -0.17106466 -0.015257325 -0.088297464 0.1585118 -0.051236372 -0.030730987
-0.02684337 0.0024950437 -0.04194425 -0.002620475 0.1161459 -0.05245293 0.04905363 0.009995947
-0.016145222 -0.07156795 -0.11064045 -0.04819115 -0.097478405 0.052503217 -0.043659393 0.052709542
0.05209886 0.12429187 -0.0669633 -0.061780967 -0.02670242 0.10513572 0.104155004 -0.075295135
0.14740413 -0.14222845 0.06480381 0.0012412381 -0.03226251 0.06019728 0.03818842 0.015177415
-0.030510806 0.05163476 -0.11998576 0.019827073 -0.05853169 -0.1238976 0.13356182 -0.42365867
-0.022455363 -0.16204453 -0.02575049 0.016831778 -0.050123345 0.19220243 -0.040549867 0.012099884
-0.01944854 -0.056271043 0.026288109 0.026393067 0.10863013 -0.01664239 -0.099141754 0.011612442
-0.06710649 0.0062295427 -0.07354252 0.12561427 -0.023218717 -0.385084 -0.109632045 0.08272351
0.12505159 -0.065548606 -0.016023565 0.2199778 0.028281538 -0.0458355 0.13594066 0.054723978
-0.3127976 0.030191824 -0.043570902 -0.06716415 -0.04491826 0.053783357 -0.1267178 -0.124500394
0.1890816 -0.05052474 -0.033111952 -0.023549978 0.04996527 -0.44593245 0.12842438 -0.028194815
-0.023198603 -0.06647068 -0.33584997 0.17680566 -0.19250527 -0.021427844 -0.013093505 -0.017988969
0.011696971 0.11046758 0.07586571 -0.022787841 0.15139207 0.16788246 0.091753095 0.07718603
-0.34518933 -0.021763429 0.23657139 -0.04079602 -0.061894555 -0.24834341 0.10570086 0.014302515
-0.008982733 -0.06668037 0.09977581 0.10624368 -0.042322215 -0.05505228 -0.050829787 0.031219313
-0.0037822656 -0.07195392 0.007520833 0.008210496 0.31617787 0.0008889723 -0.10181065 0.0051551135
-0.05942046 -0.056978695 0.053920727 -0.09316871 -0.025930887 -0.24672331 0.09994688 0.020689644
-0.0943223 -0.018662201 -0.031277552 0.25714478 -0.13513722 -0.052186064 0.1740357 0.14288533
0.061501764 -0.022911185 0.0191447 0.10047516 0.059013415 -4.811871e-05 -0.28871453 -0.006802277
0.015289449 0.009848218 0.16903135 -0.05804277 0.21774176 -0.35139573 0.12652677 -0.0024367194
-0.027778523 -0.015519872 0.068849824 -0.019927088 -0.05780356 -0.010857637 -0.19360979 0.044807594
0.19042012 -0.037217848 0.032780074 -0.19689576 0.006524747 0.039517786 -0.11099808 0.078648366
-0.025075292 0.18362607 -0.16757774 0.05315647 -0.010165228 0.081503555 0.028090177 -0.02806265
-0.270235 -0.07845109 -0.060661726 0.009952614 -0.03185761 0.2096852 -0.067711994 0.05411254
0.10476062 0.035445098 -0.14774172 -0.012685615 0.05121871 0.017088994 -0.019143028 0.10885451
00000000: 0461 843d f60c a8bd 87a3 4abc 5975 dabd
00000010: bf2d 7a3e 14c4 3abe b39e e63d b4a0 0b3c
00000020: d426 d83d 1fec 9e3d c75f 35bd 3333 84be
00000030: 5b3d 26bb 299f e6bd e129 bbbd 382c 08bd
00000040: 9acd 0ebe 68a4 4eba e179 22be f5da 1fbd
00000050: 46e9 74bd e548 7fbd 5ea2 0b3e f49a f4bd
00000060: 3aec 3ebd 0138 c0bd 7663 75bd 6482 babc
00000070: 85ed 8a3d 6b69 d03d ee4c 013d af8e 133d
00000080: ad0c 203d 548d febc 5a36 1abd d9b1 10bd
00000090: 32dd bbbd cf2b 62bd bbc0 8cbd e1e4 0ebe
000000a0: 41cb c93d 56fd e13d 22e3 c23c 7b90 26bc
000000b0: a72e ff3c 2fdb dc3d 4504 a73d 78f9 e8bd
000000c0: 7fcb 1d3c aed2 5c3d 932b 2fbe dcf9 79bc
000000d0: 4dd5 b4bd eb50 223e 3bdd 51bd 8dbf fbbc
000000e0: a1e6 dbbc e383 233b bccd 2bbd 46bc 2bbb
000000f0: e7dd ed3d e2d8 56bd 76ec 483d 0ac6 233c
00000100: fc42 84bc 3892 92bd 7697 e2bd 1564 45bd
00000110: c2a2 c7bd 9d0d 573d 31d4 32bd f6e5 573d
00000120: 9d65 553d bc8c fe3d 0e24 89bd 0a0e 7dbd
00000130: 09bf dabc 6551 d73d 384f d53d 5634 9abd
00000140: 1cf1 163e 56a4 11be dcb7 843d 0ab1 a23a
00000150: b225 04bd 6c91 763d 766b 1c3d b1aa 783c
00000160: ccf1 f9bc f87e 533d 18bb f5bd 636c a23c
00000170: edbe 6fbd 06be fdbd 6ec4 083e cae9 d8be
00000180: 4ff4 b7bc 00ef 25be b1f2 d2bc cce2 893c
00000190: 234e 4dbd b7d0 443e 9e17 26bd 983e 463c
000001a0: 8b52 9fbc 777c 66bd 295a d73c 4636 d83c
000001b0: 7979 de3d 9f55 88bc d50a cbbd 1d42 3e3c
000001c0: 216f 89bd 3121 cc3b 769d 96bd 07a1 003e
000001d0: 2e35 bebc bb29 c5be c486 e0bd f26a a93d
000001e0: 860d 003e 593e 86bd da43 83bc dc41 613e
000001f0: afae e73c 01be 3bbd 0734 0b3e 4026 603d
00000200: 0227 a0be d854 f73c 6777 32bd 5c8d 89bd
00000210: 36fc 37bd f04b 5c3d 50c2 01be 10fa febd
00000220: 9b9e 413e 08f3 4ebd 66a0 07bd e2eb c0bc
00000230: 62a8 4c3d 4251 e4be ae81 033e d0f8 e6bc
00000240: ff0a bebc c821 88bd 87f4 abbe 8b0c 353e
00000250: 1a20 45be 7289 afbc 2486 56bc 9a5d 93bc
00000260: a7a4 3f3c d43c e23d 7b5f 9b3d 91ad babc
00000270: 8606 1b3e 61e9 2b3e 0ce9 bb3d b613 9e3d
00000280: a8bc b0be 3849 b2bc c53f 723e ba19 27bd
00000290: 2585 7dbd bc4d 7ebe b179 d83d 1955 6a3c
000002a0: 502c 13bc b88f 88bd 4357 cc3d 4996 d93d
000002b0: 0f5a 2dbd 807e 61bd e532 50bd a5bf ff3c
000002c0: e3df 77bb 945c 93bd 5271 f63b 5185 063c
000002d0: 11e2 a13e ec09 693a 1a82 d0bd 3aec a83b
000002e0: de62 73bd 7e62 69bd fbdb 5c3d 3dcf bebd
000002f0: 036d d4bc 09a5 7cbe f3b0 cc3d 547d a93c
00000300: 0d2c c1bd 79e1 98bc e41c 00bd 7ba8 833e
00000310: 6961 0abe 0ec1 55bd 6a36 323e 8850 123e
00000320: 46e9 7b3d 3db0 bbbc 59d5 9c3c ecc5 cd3d
00000330: 0db8 713d 12d3 49b8 64d2 93be a3e5 debb
00000340: 9980 7a3c 6c5a 213c 8e16 2d3e 41be 6dbd
00000350: b2f7 5e3e 24ea b3be 3c90 013e 5eb1 1fbb
00000360: c98f e3bc 1047 7ebc 2301 8d3d 223e a3bc
00000370: 6dc3 6cbd 3be4 31bc a541 46be 2b88 373d
00000380: 7efd 423e be71 18bd 6644 063d 0b9f 49be
00000390: 8bcd d53b 67dd 213d f652 e3bd 6512 a13d
000003a0: b36a cdbc 7908 3c3e 8099 2bbe 99ba 593d
000003b0: 0e8c 26bc 56eb a63d 5f1d e63c a4e3 e5bc
000003c0: 3e5c 8abe f7aa a0bd 6e78 78bd 4a10 233c
000003d0: 207d 02bd b8b7 563e 96ac 8abd 1ca5 5d3d
000003e0: bc8c d63d e12e 113d 9b49 17be 53d7 4fbc
000003f0: b6ca 513d 38fe 8b3c d7d1 9cbc 1def de3d

fc2.bias f4 [10]
-0.4642822 -0.24715556 -0.2444004 0.20788607 0.43226567 -0.08787923 -0.046913005 -0.0516287
0.12203484 0.26874202
00000000: 66b6 edbe 5916 7dbe 1944 7abe 16e0 543e
00000010: ed51 dd3e 07fa b3bd da27 40bd 9e78 53bd
00000020: 67ed f93d 8e98 893e
